models/chemprop/multi_task_subfamily_dmpnn_25/fold_0/model_0/model.pt (torch_old, 37737 bytes, 7 tensors)

encoder.encoder.0.cached_zero_vector f4 [25]
000000 00 00 00 00 00 00 00 00 00 00 00 00 00 00 00 00
       0.0 0.0 0.0 0.0
000010 00 00 00 00 00 00 00 00 00 00 00 00 00 00 00 00
       0.0 0.0 0.0 0.0
000020 00 00 00 00 00 00 00 00 00 00 00 00 00 00 00 00
       0.0 0.0 0.0 0.0
000030 00 00 00 00 00 00 00 00 00 00 00 00 00 00 00 00
       0.0 0.0 0.0 0.0
000040 00 00 00 00 00 00 00 00 00 00 00 00 00 00 00 00
       0.0 0.0 0.0 0.0
000050 00 00 00 00 00 00 00 00 00 00 00 00 00 00 00 00
       0.0 0.0 0.0 0.0
000060 00 00 00 00
       0.0

encoder.encoder.0.W_i.weight f4 [25, 147]
000000 8c 77 0b be 13 4e 75 3e fa fc a2 bd a4 f8 12 3e
       -0.13619822 0.23955564 -0.07958408 0.14352661
000010 cb f9 34 3b 5b 21 10 3e ab 9c 29 bf 7e 40 59 3e
       0.0027614709 0.14075224 -0.6625468 0.21216008
000020 dd fd ed 3e b0 1a 33 3d 53 ae 7f be 27 3a db 3d
       0.46482745 0.043726623 -0.24968843 0.10704451
000030 97 81 15 bd fe 52 ad be 0f d9 7a be 99 6a 94 3d
       -0.03650054 -0.3385238 -0.24496864 0.072468944
000040 c9 bc ab 3e 15 64 fb 3c 7b 98 93 3c 60 30 16 be
       0.3354247 0.030687371 0.018017044 -0.14666891
000050 5b 9b 69 3d 4c 49 a1 bd 29 b2 73 3e b6 29 4b 3d
       0.057032924 -0.078753084 0.23798431 0.049600326
000060 00 55 92 3d 8e de 0b 3c 27 09 03 3e 3e 0a 4e bd
       0.07145119 0.008536948 0.1279646 -0.050302736
000070 4a b8 be bd fe 03 80 3c 81 dc 42 3e f4 e3 55 bd
       -0.09312494 0.015626904 0.19029428 -0.052219346
000080 a7 08 ea 3d 90 9c eb 3e 4e 76 3a be 48 ca 99 3d
       0.114274316 0.46017885 -0.18209192 0.07509285
000090 0d 35 99 bd 65 92 05 be 0c 31 31 bd 28 fa 39 3d
       -0.07480822 -0.13044126 -0.043259665 0.045404583
0000a0 57 5e 19 bd 31 07 a9 bd ad a1 97 3c 01 dd 1d be
       -0.037443485 -0.08253325 0.01850971 -0.15416338
0000b0 08 b2 b4 3d 58 46 d4 3d 30 c1 27 be 92 d4 43 3d
       0.08823019 0.103649795 -0.16382289 0.047810145
0000c0 1f 50 d6 3d 2f e8 17 3d 6e d4 ec bd 1c 69 3e bd
       0.10464501 0.037086662 -0.11563955 -0.04648696
0000d0 f9 dc 3e bd ab e8 d3 3d 5b 73 ef 3d f8 ec 17 3e
       -0.046597455 0.10347112 0.11691924 0.1483649
0000e0 33 cf 38 3c 7a eb 5b 3d 3a 89 ec 3c 26 7c a1 bd
       0.011279869 0.053691365 0.028874028 -0.078850076
0000f0 f7 d0 b8 bd ec 1c ea bc 2e e6 43 3e 67 81 d4 bc
       -0.09024232 -0.028578244 0.19130775 -0.02594061
000100 5a 5c a2 3d bb e1 47 bd 7f 47 19 3d 32 90 c9 3c
       0.07927771 -0.048799258 0.0374217 0.02460489
000110 00 5d 4c bd 3c 1f 74 bd 34 dc 5c bb a1 24 af 3d
       -0.04989338 -0.0596001 -0.0033700587 0.08551908
000120 52 91 41 be 7f 90 36 3c 97 a3 e1 3c b2 8e 3b 3d
       -0.18903092 0.011142849 0.027543826 0.04579038
000130 a4 13 f3 bd 16 39 b7 bd da 4a 83 3c 6a 0f 60 3d
       -0.118689805 -0.08946435 0.016026903 0.0547022
000140 67 c4 23 3e 3c 6f 82 bd 5d e0 8b bc 91 b4 8a 3e
       0.1599289 -0.063688725 -0.017074758 0.27090886
000150 64 69 18 3e b6 5e e1 3d 4c 1e 2e bd 4e 23 b9 3b
       0.14883953 0.11004393 -0.042509362 0.0056499606
000160 69 e5 6e 3d 06 36 3c 3d c0 bf 0d 3d 46 2f c8 3c
       0.05832425 0.04594996 0.034606695 0.024436604
000170 e3 a7 9d bd 47 a9 9c 3c 7d 66 09 3e 6b 1d 70 be
       -0.076980375 0.019123686 0.13418002 -0.23448722
000180 b5 f7 61 3e 41 f9 bf bc 33 40 58 be e0 bb 8b 3d
       0.22067149 -0.023434283 -0.2111824 0.06822944
000190 6f 90 af bc 9e 4d c1 bb aa 2c 7f be 92 e3 26 3d
       -0.021431176 -0.0058991453 -0.24919382 0.04074437
0001a0 fb 13 5d be 64 06 dd 3e 92 b0 07 3f 7b bd d6 bd
       -0.21589653 0.43168938 0.530038 -0.10485359
0001b0 cb e8 9d be 8a 0d e3 bc c0 d9 55 be 66 7e f3 3d
       -0.3084167 -0.027716417 -0.20883846 0.11889343
0001c0 bf 10 bb bb cf a6 1d be 48 49 7d bd 56 2b 2c 3f
       -0.0057087834 -0.15395664 -0.061837465 0.67253625
0001d0 fe e9 5b 3f 91 a4 82 bd dd 74 34 bc 03 e5 81 3d
       0.8590392 -0.06379045 -0.0110141905 0.06342509
0001e0 91 81 91 bc ec 8c 96 be 44 70 35 3f d5 cd 00 be
       -0.017761977 -0.2940439 0.7087443 -0.12578519
0001f0 f5 0e 25 be b0 9e 41 bf 6b 34 85 3d 03 2d ab 3e
       -0.16118987 -0.7563276 0.065041386 0.3343278
000200 fc 80 bc 3e 8b e9 de 3d 59 d4 93 3d 6b 4f 89 be
       0.36817157 0.108843885 0.072182365 -0.26818404
000210 46 1c 3d 3e 24 90 1c bc 8f 4b b2 3d 6c 69 f5 bc
       0.18467817 -0.00955585 0.08705818 -0.029957496
000220 2a 4b c1 bf 96 2f 53 bd 1d 4d 4b 3d 26 26 2b 3f
       -1.5101063 -0.051559053 0.049634088 0.66855085
000230 99 4f ca 3d f8 99 ac bd 3c 11 2b bf 53 e4 5f 3f
       0.09878463 -0.08427805 -0.6682317 0.8745777
000240 00 31 b3 bd 87 74 65 bd 1a fd 28 be bf c9 54 bc
       -0.087495804 -0.056019332 -0.165028 -0.012987553
000250 4a 7d c6 3d b1 2f 36 3d 26 b0 54 be c2 f9 f3 bd
       0.09691866 0.044479076 -0.2077032 -0.11912872
000260 f8 ed 0f 3d e9 2c 3b 3e 14 ae 8e bf fd 18 87 3d
       0.035139054 0.1827885 -1.1146874 0.06596563
000270 a4 97 c9 bb 02 ad 5b 3c f3 6b b9 3d e6 5f e9 3d
       -0.00615211 0.0134079475 0.09053793 0.11395244
000280 f4 e6 a8 3e e8 53 9c 3f fa 1d 7b bf bf 45 b5 3d
       0.32988703 1.2213106 -0.98092616 0.08851194
000290 39 ef 1f be 96 17 51 3e 01 af ee 3d 32 5e da bc
       -0.156186 0.20419154 0.11654473 -0.026656244
0002a0 1d fa 7c 3d 85 8b 17 be d2 2e 4c be eb f0 1b be
       0.061761964 -0.14799316 -0.19939736 -0.15228622
0002b0 7f 30 06 bb ff ff 5c b9 37 41 12 3e 38 4e c7 bd
       -0.0020475683 -0.00021076201 0.1428269 -0.09731716
0002c0 8f b3 c2 3a bc 0d 25 3d fc 6a d5 bd e0 b6 33 3d
       0.0014854538 0.0402963 -0.10420796 0.043875575
0002d0 b8 d5 02 3f 4e 23 59 3e 71 f5 8c 3c 30 49 3b 3e
       0.5110736 0.21204874 0.01720688 0.18289638
0002e0 a2 73 7d be 4c 82 01 be b4 a4 27 be 18 c8 80 be
       -0.24751142 -0.1264736 -0.16371423 -0.2515266
0002f0 27 07 79 3c 73 70 1b 3b b7 44 32 be 1e 19 1e bb
       0.015199459 0.0023718148 -0.17409025 -0.0024123858
000300 6a 60 2f 3c 8f 11 65 bd 28 7d a7 3d b3 be 27 be
       0.010704139 -0.05592495 0.081781685 -0.1638134
000310 ca 2b 0c bd 94 c8 34 3e f4 52 b2 3d 35 af 30 3b
       -0.034221448 0.1765464 0.08707228 0.00269599
000320 86 19 cc bd 8a 1c 5e 3e c2 ae ab bd 85 a0 97 bd
       -0.09965806 0.21690574 -0.08382942 -0.074036635
000330 dd ad ea 3d 2f 4d ac bc 75 e4 49 bc 58 50 3e 3d
       0.11458943 -0.021032898 -0.012322535 0.04646334
000340 0b ff 89 3a 2b e9 fb 3d 6e 29 6d bd dc 77 03 bd
       0.0010528279 0.12300333 -0.05790084 -0.03209673
000350 a9 84 ad 3a 3b 54 cc bc 2f 9c c7 3b 94 46 60 be
       0.0013238388 -0.024942508 0.0060916166 -0.21901923
000360 52 c5 30 be 36 b0 c0 bd 73 74 25 bd 7a 53 0a 3e
       -0.17262772 -0.094086096 -0.040394258 0.13508406
000370 44 e5 1d bd 92 db 06 be e2 dd 21 bd 3a 3b ea 3d
       -0.038548723 -0.13169697 -0.039518245 0.11437078
000380 45 f1 46 3e 04 67 8b 3d 48 5a 20 bc b2 4d d7 3c
       0.19427975 0.06806758 -0.00978715 0.026282165
000390 7e 56 5e 3d 31 36 87 3d 3d e1 ae 3a d8 31 42 bb
       0.054281704 0.06602133 0.0013342273 -0.002963176
0003a0 d0 75 a6 be 5e ec 67 3b df ac 0d 3d 23 2b 1a be
       -0.3251176 0.0035388689 0.03458869 -0.15055518
0003b0 16 1a 85 3e b3 21 00 3e 39 52 cf 3d 74 35 2c bd
       0.25996464 0.12512855 0.101231046 -0.042043164
0003c0 94 c3 d7 bb cf de 8b 3d 63 c7 9e bd 73 59 89 3d
       -0.006584594 0.06829607 -0.07752874 0.06706514
0003d0 1d eb 0f be 5d 4a 06 be ad a9 e1 3d 1e ca c3 bc
       -0.14054532 -0.13114305 0.11018691 -0.023900088
0003e0 64 17 b5 bd 82 76 91 bd 73 ae 82 bf 24 2a 73 bf
       -0.08842352 -0.07102682 -1.0209488 -0.94986176
0003f0 e9 01 b4 3e 21 2d 02 bf a4 d2 82 3d 5f 83 af be
       0.35157707 -0.5085011 0.06387833 -0.34279916

encoder.encoder.0.W_h.weight f4 [25, 25]
000000 1b d8 41 be 66 fe 60 bf c9 98 22 3e 72 76 23 bd
       -0.18930094 -0.8788818 0.15878595 -0.03990788
000010 cd 74 b5 bd 4a 8e c8 be 64 bb aa bd 61 7b d3 3e
       -0.088601686 -0.39171058 -0.08336523 0.41305068
000020 f2 83 ca be 13 30 0a 3d 4a 75 a4 3e e5 10 90 3c
       -0.3955379 0.033737253 0.32120734 0.017586181
000030 fd f7 0f bd 47 c9 6c 3d cc df 5f 3e df a6 35 3b
       -0.03514861 0.05780914 0.21862715 0.002771787
000040 3b ab d8 3e 6d d6 42 be a8 4b ee 3d 26 5a a9 be
       0.42318138 -0.1902711 0.11635524 -0.3307659
000050 7e f8 af 3e 97 5b d2 bd bf aa 04 3e 5b 42 b2 3e
       0.34369272 -0.102713756 0.1295576 0.3481625
000060 29 93 41 be 41 08 2d be 65 9d bd be 62 32 96 3d
       -0.18903793 -0.1689768 -0.37034145 0.073338285
000070 39 8a f6 be e3 31 1d bf 32 06 07 3e e4 a1 82 3d
       -0.4815233 -0.61404246 0.13185957 0.063785344
000080 c1 e0 98 be 57 3c 3a bd 5b b4 75 3d ea df 18 3f
       -0.29858974 -0.0454677 0.059986454 0.59716666
000090 fa 74 c5 3c df 7e 04 3d 1a 9a a8 3d d2 95 a5 3e
       0.02410363 0.032347556 0.082325175 0.32340866
0000a0 17 86 91 bd 5b 97 11 3f 98 28 35 be 97 22 b1 bd
       -0.07105654 0.56871575 -0.17691267 -0.086491756
0000b0 b1 09 40 be 4a 36 1d be 4f 23 8b 3f ec b1 2e be
       -0.18753697 -0.15352741 1.087015 -0.1706006
0000c0 4f c6 59 be 38 00 99 bd 06 1f 8e bc 17 d1 e1 be
       -0.21267055 -0.07470745 -0.017348778 -0.44104835
0000d0 70 18 99 3b 5b 8e 9d 3e 55 be 63 3c aa eb a0 3e
       0.0046721026 0.3077267 0.013900359 0.31429797
0000e0 7e 11 56 bf ec 6a ad 3e a9 bc 14 3b 8c 1e 2b be
       -0.8362044 0.33870637 0.0022695458 -0.16710871
0000f0 b3 15 4f be 91 5a 02 3f 47 10 95 bd dc 01 0c 3f
       -0.20223121 0.50919443 -0.07278495 0.5469034
000100 20 eb 35 be 18 8b b8 bd fe 99 16 3e 71 90 12 3f
       -0.17765474 -0.09010905 0.14707181 0.5725165
000110 b8 5e de be 68 59 56 be 73 32 9d be 54 b5 b0 be
       -0.4343164 -0.20932543 -0.30702552 -0.34513342
000120 2d 20 a1 3e 8f e5 fc bd a6 46 41 3e 25 ec 2c be
       0.3146986 -0.12348472 0.18874606 -0.16886957
000130 56 71 3d be 75 9a 94 be 07 13 ec 3d ba 8e f0 bd
       -0.18500265 -0.2902409 0.11527067 -0.11745973
000140 77 2a 14 3e 88 95 d7 3c 33 88 30 3f ab 7f 3d 3e
       0.14469324 0.02631642 0.68957824 0.18505733
000150 cf bb c2 3d 5c 0b b5 be f9 5a 74 3e bb ac e7 be
       0.09508478 -0.3536023 0.23862828 -0.4524897
000160 81 63 5c 3e 58 d8 d9 3d dc 54 92 bd dd e1 29 be
       0.21522333 0.106369674 -0.07145092 -0.16590066
000170 26 4f bf 3e 01 54 79 be 92 35 50 bd d5 fc 11 bf
       0.37365073 -0.24348451 -0.05083234 -0.57026416
000180 99 74 26 bc e8 73 ab be 9f 81 e1 3d ed a6 9a 3e
       -0.010159635 -0.33486867 0.110110514 0.3020548
000190 bd 79 f1 3e 36 e8 f1 3d 88 18 81 3e 60 b6 0f be
       0.4716319 0.11811869 0.25214028 -0.14034414
0001a0 c1 14 95 be a6 65 ad bd ac 27 df be 23 a8 11 be
       -0.29117396 -0.084666535 -0.43584955 -0.14224295
0001b0 14 eb 58 3d 61 75 90 bc 57 b2 70 3d 79 59 de 3c
       0.052958563 -0.017634096 0.058763828 0.027142273
0001c0 1d be c0 bd f2 8a 87 3e 4b 06 98 bd 61 ae 6c 3e
       -0.09411261 0.26473194 -0.07423075 0.23113395
0001d0 60 32 02 3e ba 66 41 3e 6b cc 1b bd 4a e6 36 3e
       0.12714529 0.18886843 -0.038036745 0.17861286
0001e0 78 bc 3b bf ba 05 d2 be 3b 4b ba 3e 33 56 bd 3e
       -0.73334455 -0.41019994 0.3638552 0.36979827
0001f0 d7 58 11 3f eb 40 be be 66 4e d3 3e 2d 0a 5d be
       0.56776184 -0.37158903 0.4127075 -0.21585913
000200 90 27 c9 bd 47 fd 2c bd b5 c9 5e 3e 72 1e 4d be
       -0.09821999 -0.04223373 0.21756633 -0.20031145
000210 cf 77 a2 3e 9d 2e 23 3d 42 c0 58 3c 3f 82 f9 3e
       0.31732032 0.039839376 0.013229432 0.48732182
000220 a0 ba 06 3e d8 3e 81 3e a2 7d 12 3e 28 80 5e be
       0.1315713 0.25243258 0.14305738 -0.21728575
000230 8e 2c ce 3c bd 4c e4 bc 23 48 0d 3e 7d d1 61 3d
       0.02516773 -0.027868623 0.13797049 0.055131424
000240 1b fa 10 bd 2e 53 0c bf 7f 5b 1b 3e a3 cf d2 3e
       -0.03539477 -0.5481442 0.15171622 0.4117404
000250 e2 da 0a be 35 1a a7 3e 44 21 9e 3e 6d ee fe be
       -0.1356006 0.32637182 0.30884755 -0.4979128
000260 da 36 a5 bd 92 04 a2 3e 78 f6 36 be 90 3f 5c 3d
       -0.08067103 0.31644112 -0.17867458 0.053771555
000270 32 2f 8a 3e 46 10 18 be a7 6b 8c 3e d6 5c b7 3e
       0.26989132 -0.14849958 0.27425882 0.35813016
000280 00 0b e7 3d 6d dd 91 3e 5f 61 f2 3d 34 8e d2 be
       0.11281395 0.28489247 0.11834978 -0.41124117
000290 ff 25 2a be 3d 05 dc be dd 0e a5 be 74 39 ca 3e
       -0.16616057 -0.42972746 -0.32237902 0.39496958
0002a0 0c a2 a2 3e 30 f3 de be 59 8d 83 3e f0 a6 05 bf
       0.31764257 -0.43544912 0.25693777 -0.5220785
0002b0 c7 09 8d 3b b8 3b a5 be 70 68 44 be 28 73 27 bf
       0.004304144 -0.32272124 -0.19180465 -0.6541009
0002c0 3d 34 72 bf cf 54 55 3e 76 f8 3f 3e fc d8 2c 3e
       -0.9461096 0.20833133 0.18747124 0.16879648
0002d0 1e bb 50 3e cc 53 8f be eb e8 8b 3e f9 ec 01 3d
       0.2038388 -0.2799362 0.2732614 0.031720135
0002e0 d3 43 d5 39 de 90 2b 3f 51 f7 a6 bc 67 dc 4b be
       0.0004067706 0.67017925 -0.020381602 -0.19908296
0002f0 26 fe 7e be 0a c2 8f 3e 55 19 c6 3e 78 d1 b6 3e
       -0.24901637 0.28077728 0.38691202 0.35706687
000300 32 ad f7 bd c3 b7 a9 3e d6 88 16 bf f7 0f 21 be
       -0.12093581 0.33148012 -0.58802545 -0.15728746
000310 7f 85 49 3e a7 c9 9e 3e 55 84 08 bf 5c 9e 9d 3d
       0.19679831 0.31013224 -0.5332692 0.0769622
000320 44 54 12 3d 74 3d 42 3f 36 a2 22 be 64 22 bf be
       0.035724893 0.7587502 -0.15882191 -0.37330925
000330 e5 01 05 bf f7 db 0c 3f 00 74 a1 3d df bb 8b be
       -0.51956016 0.5502314 0.07883453 -0.27291772
000340 15 b6 75 3e a2 80 d6 3e fe 18 e7 bd 10 55 3a be
       0.2399524 0.41895014 -0.11284064 -0.18196511
000350 ab 78 e4 bd ca 60 28 be 19 a8 9a 3d 5f c8 7b 3e
       -0.11155828 -0.16443172 0.07551593 0.24588154
000360 e2 41 70 be 8c f6 0c bf 4d 45 a7 be 0b 12 4c 3e
       -0.23462632 -0.550637 -0.3267006 0.19928758
000370 56 49 96 bd 76 d5 f6 3e 6f e4 90 3c 21 7e e1 bb
       -0.073382065 0.48209733 0.01768705 -0.006881491
000380 0e d7 f2 bd f1 cd e2 be 54 e3 26 bf 79 8d 55 3e
       -0.11857425 -0.44297746 -0.65190625 0.20854749
000390 88 b3 16 3f 81 e5 46 3e 0c f6 b9 3e 12 ee 2b be
       0.5886769 0.19423486 0.3632053 -0.16790035
0003a0 27 78 02 bf 31 80 2b bf 75 3a f0 be 36 22 05 3e
       -0.5096459 -0.6699248 -0.469196 0.13001332
0003b0 76 46 b3 bd c9 ac df 3e ee 6d db 3d 6e 6a e5 bd
       -0.08753674 0.43686512 0.10714327 -0.112019405
0003c0 5e a8 b3 be 2f db 51 3d 23 0f a3 bd 59 c3 79 3f
       -0.3508939 0.05123442 -0.079618715 0.975637
0003d0 5d b4 c4 be 9f 26 2f bd 5f ef db 3e 47 c2 ed 3e
       -0.38418856 -0.04276144 0.42956063 0.46437284
0003e0 c9 a1 76 3e 88 e8 6f be 72 ef 27 3f 70 69 4c 3d
       0.24085154 -0.23428547 0.6559974 0.04990524
0003f0 66 15 52 3e 39 35 08 3e f2 4e 75 3e 59 46 35 be
       0.20515975 0.13301553 0.23955896 -0.17702617

encoder.encoder.0.W_o.weight f4 [25, 158]
000000 99 ba 39 3e be 85 5b bd e0 88 f5 bd 66 d4 dd 3c
       0.18137588 -0.053594343 -0.119889975 0.027078819
000010 01 01 f5 be e8 d8 3a 3e ba eb 3a bf 9d ab 33 3f
       -0.47852328 0.18246806 -0.7301594 0.70183736
000020 85 07 a8 be ec 0e 1e bd 3f 8c 43 40 59 5d 08 be
       -0.32818237 -0.03858845 3.055435 -0.1331686
000030 a2 66 18 3e b2 de 82 3d 15 a2 eb bf 2d 62 77 bf
       0.14882901 0.06390132 -1.8408839 -0.9663418
000040 8b 20 26 3f 98 34 47 be 8f db 18 3f 79 1c 95 3c
       0.64893407 -0.19453657 0.5971002 0.018202053
000050 9d e7 09 3e 19 f5 61 3c 41 06 ab bd af 15 e1 bc
       0.1346726 0.013791346 -0.08350802 -0.02747616
000060 0b 9e 31 3d 14 53 6d 3d fe 02 1d bd 06 e0 10 3c
       0.043363612 0.057940558 -0.03833293 0.008842474
000070 98 03 35 3e bd 7f 19 bf 12 5f 14 be ac 35 1f 3d
       0.17677152 -0.5996054 -0.14489391 0.038869545
000080 f2 01 60 3c 91 aa 80 3f 22 e8 ad 3e ff 16 69 be
       0.013672339 1.0052053 0.33966166 -0.22762679
000090 74 1a d0 3d 75 95 a5 3b cf 80 19 3e 56 1c 5a be
       0.101612955 0.005053217 0.14990543 -0.21299872
0000a0 88 1b 27 3d 00 d2 98 bd 7d 1d 41 be 5a 3a de 3d
       0.04079774 -0.07461929 -0.18858905 0.108509734
0000b0 f9 dd 85 3d b1 2e 91 3d f6 6d 43 3c c6 bc 8c 3c
       0.065364785 0.07088984 0.011928072 0.017179858
0000c0 cc 91 26 be ea 9c e2 bd 65 64 d3 bc 19 d9 36 bd
       -0.16266555 -0.11065085 -0.025804708 -0.044640634
0000d0 ec 10 da 3d 00 e2 10 bc aa 16 7b 3d 56 cd 1b bd
       0.10647759 -0.008842945 0.06130091 -0.03803762
0000e0 9b 21 05 3e 14 99 12 3d 1a 9b 5b be 78 ca 8d 3c
       0.130011 0.035790518 -0.21445885 0.017308459
0000f0 32 63 33 3d 80 b4 c9 bd 20 81 1b bc ae 01 62 3e
       0.043795772 -0.09848881 -0.009491235 0.22070953
000100 b4 58 9b 3d 50 97 c9 3d 74 ef 05 bd 1a ab fc 3d
       0.07585278 0.09843314 -0.032699063 0.123373225
000110 a8 54 e5 3d ee ed e1 bc 49 d7 66 bd 52 1e cf 3b
       0.111977875 -0.027579274 -0.056357656 0.006320753
000120 d7 0c cf 3d 81 d7 46 3b 7e 36 fe 3d 19 c5 12 3e
       0.10109871 0.0030340853 0.12412737 0.14333
000130 a2 bd 32 3e bc 53 d1 bd dc 56 47 bd 6a 0b 2f be
       0.17455152 -0.10221049 -0.04866682 -0.17094198
000140 a5 e2 fd 3d 59 d0 89 bd cb 42 53 be ad dd e0 bd
       0.12396745 -0.06729192 -0.20630948 -0.10979781
000150 d6 57 60 3d 91 91 ad bd f8 e3 13 3e da a4 46 be
       0.054771267 -0.0847503 0.14442432 -0.19398823
000160 3c 05 95 bd 86 f9 00 3e 75 77 2f 3d 36 8d 13 be
       -0.07276389 0.12595186 0.042838532 -0.14409336
000170 75 d4 aa 3c 8b 60 81 3e c5 c8 78 3d d8 cf 25 be
       0.02085326 0.2526897 0.060738344 -0.16192567
000180 66 03 85 bd 47 7c 92 3c 1a 86 1e bc 0a b8 25 be
       -0.06494789 0.017881526 -0.009675527 -0.16183487
000190 f1 6e e0 bd 64 37 f6 3e 5e ad b8 3e 78 2f c8 be
       -0.109586604 0.48089135 0.3606977 -0.39098716
0001a0 33 7f 72 3e ca 9d d4 3d be 65 e5 3e 81 0b 0a 3e
       0.23681335 0.103816584 0.44804186 0.13480951
0001b0 05 b7 9d bc 17 9f 18 3c 5c bf b5 3e 55 54 e1 be
       -0.01925231 0.009315274 0.35497558 -0.44009653
0001c0 67 37 7d bc 96 a1 2d 3d 4c 13 2d 3e 66 47 83 bf
       -0.0154551035 0.04239043 0.16901892 -1.0256164
0001d0 6d be 97 be e1 f9 84 3e 83 7d 4e b9 4f 9c 3f 3e
       -0.2963747 0.25971892 -0.00019692448 0.18711971
0001e0 3b 7a 78 3e 62 bb d7 bd f8 86 12 3d e0 ef 9d be
       0.24265377 -0.10533787 0.035773247 -0.30847073
0001f0 ce fe b8 bb 9a 71 04 3e be 79 a2 3d a7 1c 66 be
       -0.0056456095 0.1293396 0.07933377 -0.22471868
000200 bd d4 cb 3e 3e 82 39 bc 47 7b 41 3f 38 79 81 3e
       0.39810744 -0.011322556 0.7557873 0.25287795
000210 ad ab 6b 3e a0 87 c6 3d c2 af 43 be 05 3a b4 3d
       0.23014708 0.09693837 -0.19110015 0.08800129
000220 a1 91 64 3c bc 3b d1 bd 1d 5e e4 be e2 bf 4c be
       0.013950736 -0.102164716 -0.44603053 -0.19995072
000230 1d 29 ea 3e 22 23 35 bf 58 e0 89 3d 57 09 81 bd
       0.45734492 -0.70756733 0.06732243 -0.063006096
000240 1a 5a c4 3e 47 47 b1 3e df 3e 3e bf fc 42 90 be
       0.38349992 0.34624693 -0.74314684 -0.28176105
000250 4d 1c 54 3e af 33 9a 3e e0 a5 8a bd b0 6a b8 be
       0.20713921 0.30117556 -0.067699194 -0.36018896
000260 8e 19 5f be 96 71 07 bc cc 7e 42 3d cf 67 29 3b
       -0.21787092 -0.008266827 0.047484204 0.0025849228
000270 f4 03 44 3e f5 e7 04 3f 6e dd b2 3e b8 6a a0 3d
       0.19142133 0.5191644 0.34934562 0.07832855
000280 de fb 39 be b3 39 33 3d cd 4c dc 3e 54 04 38 3d
       -0.18162486 0.0437562 0.43027344 0.044926003
000290 72 31 ab 3e 4d 2e ae bd 1d d3 31 be 76 e4 0a be
       0.3343616 -0.08504925 -0.1736569 -0.13563713
0002a0 14 15 dd 3c 3c e9 c9 3d 80 dd 0e bc 70 12 08 bf
       0.02698759 0.09858939 -0.008719802 -0.53153133
0002b0 75 1e a5 3e 98 63 01 bf 61 e0 6f be f9 a7 cc 3d
       0.322498 -0.50542593 -0.23425438 0.09992976
0002c0 10 58 7e bb a1 99 d6 3c 91 d8 17 bd f0 16 43 bc
       -0.0038809814 0.026196303 -0.03707177 -0.011907324
0002d0 7b 65 d1 bd 10 07 b4 bd 40 a7 6b bd 91 66 3e bc
       -0.10224434 -0.087904096 -0.05753255 -0.011621133
0002e0 d6 c5 bb 3c 51 9a ef bc b9 77 13 3d ed 11 86 bd
       0.022921484 -0.029248388 0.03600285 -0.06546388
0002f0 fb 44 e4 bd 54 98 22 3e 65 a0 a4 bc f1 69 ce be
       -0.111459695 0.15878421 -0.020096013 -0.40315202
000300 dc 9a f0 3e 37 bd 12 3e 5a 0d f4 bc 59 2f 1a 3e
       0.46993148 0.14329992 -0.029791523 0.15057124
000310 75 de ca 3d 88 69 69 3d 8d 1d 17 bd 1a c4 ed bd
       0.099057116 0.056985408 -0.036893416 -0.11609669
000320 43 c6 38 be 45 3c 05 3c 2b 53 2c be cb 85 a9 bc
       -0.18044381 0.008132045 -0.16828601 -0.02069368
000330 ee 15 4d be 54 bb b2 bc e4 ff 9d 3d 80 2a 25 bd
       -0.20027897 -0.02181784 0.07714823 -0.040323734
000340 9e 28 53 3e e4 02 8b bd 88 60 59 3e 23 fa a4 3d
       0.20620963 -0.06787661 0.2122823 0.08055522
000350 bf a5 54 be a3 cc 06 be 73 b7 c8 bc 9f e1 42 bc
       -0.20766352 -0.13164 -0.024501538 -0.011894613
000360 59 d4 01 be 3e fd 3a 3c 64 79 d5 bc 01 db ce 3c
       -0.1267866 0.011412917 -0.02605886 0.025250914
000370 21 23 5c bd 70 66 61 bd 73 b5 c2 bc df 67 57 be
       -0.05374444 -0.055029333 -0.023768162 -0.21035717
000380 02 73 7d bd 05 56 ea 3c bf a6 5d 3d e3 dd a4 bb
       -0.061877258 0.02860547 0.0541141 -0.005031334
000390 32 d3 dd bd 47 c8 17 bc 7b b2 21 3d ef ca 48 bd
       -0.10831298 -0.009264058 0.039476853 -0.049021658
0003a0 f8 0f 12 3e f9 cb 8b 3e 9e 33 4c bd f6 a7 0f 3e
       0.14263904 0.27304056 -0.049853913 0.14028916
0003b0 2a 87 fd bd 88 39 45 3d 17 fd a4 bd a2 81 0c 3b
       -0.12379296 0.04815057 -0.080560856 0.0021439572
0003c0 63 3a 71 bd 92 d3 6c bc d6 9b 87 bd d7 c5 1d 3e
       -0.058893573 -0.014454739 -0.0662152 0.15407501
0003d0 85 88 c7 3d bf 4b 1c 3e 48 9e 02 be 8a 9b db bc
       0.09742836 0.1526327 -0.12755692 -0.026807565
0003e0 ba 64 9a bc b2 e9 be bd a0 3f 1a bc 2f a0 26 3c
       -0.018846858 -0.093219176 -0.009414583 0.010170027
0003f0 13 07 67 3e 7a 92 9b 3c 1d 2b 96 bd 4d ec 2b bd
       0.22561292 0.018990744 -0.07332442 -0.0419734

encoder.encoder.0.W_o.bias f4 [25]
000000 08 5e 7e 3d d6 63 d6 39 cd 16 bb bd 9a 14 9c bc
       0.062101394 0.00040891644 -0.09135208 -0.019052792
000010 da b9 32 3e 30 ad 54 3d 29 9e bc 3d 6c da b3 bd
       0.17453709 0.051922977 0.09209854 -0.08781895
000020 57 7c 97 3d b3 65 d1 bd 7f 97 05 3d 48 0f b4 3b
       0.07396763 -0.10224476 0.03261518 0.0054949857
000030 1f 08 f0 bd 22 8e 65 b9 91 0d 46 3c 7d c2 46 bd
       -0.11720299 -0.0002189209 0.012088195 -0.048525322
000040 95 c8 c6 3d ca f9 5d bd 31 ec da 3d c0 4d 51 bd
       0.09706227 -0.054193296 0.10689581 -0.05109954
000050 d0 5f 8c bd 36 08 2d 3e 3b 30 32 3e 83 e9 3d 3c
       -0.06854212 0.16897663 0.17401211 0.011591318
000060 ca 9b 8d bd
       -0.0691448

ffn.1.weight f4 [3, 25]
000000 5a 51 2d bf 53 79 ca 3e c8 9d b3 bf ba 32 d2 3e
       -0.6770226 0.39545688 -1.4032526 0.41054326
000010 93 38 e5 3f 8a 3d d2 bf 24 b0 12 bf 53 70 cb 3e
       1.790789 -1.642503 -0.5730002 0.39734134
000020 43 cb da be 28 40 7f 3f de 0e 64 bf c1 a8 9e bf
       -0.427332 0.9970727 -0.89085186 -1.239525
000030 7d 98 83 3f 10 7a 05 bf 07 62 23 3f 40 77 97 3e
       1.0280911 -0.5213938 0.6382145 0.29583168
000040 6a ce aa be 76 9d 4d 3f 84 38 87 bf 56 6c 67 bf
       -0.33360606 0.8031839 -1.0564122 -0.9039968
000050 fb 89 25 3f 38 a0 68 be bb a8 40 bf 1e 43 8d 3e
       0.64663666 -0.22717369 -0.7525746 0.2759027
000060 ff c6 1f be 4c d8 14 3e ac 6a 07 bf 38 73 49 3e
       -0.15603255 0.14535636 -0.52897143 0.19672859
000070 23 63 01 3e 39 b0 00 bf 34 65 f3 3f 8b de 30 3f
       0.12635474 -0.50268894 1.901526 0.69089574
000080 a9 95 af be 0b 66 88 3f 39 11 bd bf f2 91 83 3f
       -0.3429387 1.0656141 -1.4770881 1.0278914
000090 bb d9 84 bc 08 e6 05 bf 4b 04 c1 3e 32 a8 37 be
       -0.016217103 -0.52304125 0.37698588 -0.17935255
0000a0 5a 3c 3d bf f7 00 70 3f 00 81 a0 bf 1e 28 88 3f
       -0.73920214 0.9375147 -1.2539368 1.0637243
0000b0 56 88 b9 bf 21 ca ce be a4 33 e9 3e d5 8a 91 bf
       -1.4494731 -0.40388587 0.4554721 -1.1370493
0000c0 b3 5e e1 3d 3b 25 3c 3d 32 1d d5 bd 8e 6a 99 be
       0.110043906 0.045933943 -0.10405959 -0.29964107
0000d0 80 09 57 3f 11 2f 74 bf 63 7a a6 bf 1f 0f 61 be
       0.8399887 -0.9538432 -1.30061 -0.21978424
0000e0 af b8 df be 42 7f ea 3e c2 d3 57 3e b5 eb 10 bf
       -0.4369559 0.45800215 0.21076873 -0.5660966
0000f0 9f fe 59 bd 45 36 56 3f fc 0f 6c bf d6 03 8e 3e
       -0.05322134 0.8367656 -0.9221189 0.27737302
000100 aa cb b7 ba 55 cb bf bd ba e1 4b bf 87 aa a5 be
       -0.0014022489 -0.093649544 -0.79641306 -0.32356665
000110 94 c1 b4 3e 05 ac 3b 40 e0 30 02 bf ba 7e 44 bf
       0.35303938 2.9323742 -0.5085583 -0.7675587
000120 6f 58 8b 3f 6e e6 2a bf 96 e9 81 3e
       1.0886363 -0.6675786 0.25373524

ffn.1.bias f4 [3]
000000 3c 65 85 3c fc 62 2a 3d 2f 8d 90 bd
       0.016283624 0.041598305 -0.07058179
